…
ext, we instantiate the Generator class and apply the custom weight initialization defined in the weights_init function to the layers of our generator:\n# Create the generator\nnetG = Generator(ngpu).to(device)\n\n# Handle multi-gpu if desired\nif (device.type == 'cuda') and (ngpu &gt; 1):\n    netG = nn.DataParallel(netG, list(range(ngpu)))\n\n# Apply the weights_init function to randomly initialize all weights to mean=0, stdev=0.02.\nnetG.apply(weights_init)\n\n# Print the model\nprint(netG)\nLet us visualize the architecture of our generator model:\nGenerator(\n  (main): Sequential(\n    (0): ConvTranspose2d(5, 1024, kernel_size=(4, 4), stride=(1, 1), bias=False)\n    (1): BatchNorm2d(1024, eps=1e-05, momentum=0.1, affine=True, track_running_stats=True)\n    (2): ReLU(inplace=True)\n    (3): ConvTranspose2d(1024, 512, kernel_size=(4, 4), stride=(2, 2), padding=(1, 1), bias=False)\n    (4): BatchNorm2d(512, eps=1e-05, momentum=0.1, affine=True, track_running_stats=True)\n    (5): ReLU(inplace=True)\n    (6): ConvTranspose2d(512, 256, kernel_size=(4, 4), stride=(2, 2), padding=(1, 1), bias=False)\n    (7): BatchNorm2d(256, eps=1e-05, momentum=0.1, affine=True, track_running_stats=True)\n    (8): ReLU(inplace=True)\n    (9): ConvTranspose2d(256, 128, kernel_size=(4, 4), stride=(2, 2), padding=(1, 1), bias=False)\n    (10): BatchNorm2d(128, eps=1e-05, momentum=0.1, affine=True, track_running_stats=True)\n    (11): ReLU(inplace=True)\n    (12): ConvTranspose2d(128, 3, kernel_size=(4, 4), stride=(2, 2), padding=(1, 1), bias=False)\n    (13): Tanh()\n  )\n)"
  },
  {
    "objectID": "blog/240218_gan-first-project/index.html#build-the-discriminator",
    "href": "blog/240218_gan-first-project/index.html#build-the-discriminator",
    "title": "AI Learns to Generate Synthetic Deep Space Images",
    "section": "Build the Discriminator",
    "text": "Build th
…
criminator class and apply the custom weight initialization defined in the weights_init function to the layers of our discriminator:\n# Create the Discriminator\nnetD = Discriminator(ngpu).to(device)\n\n# Handle multi-gpu if desired\nif (device.type == 'cuda') and (ngpu &gt; 1):\n    netD = nn.DataParallel(netD, list(range(ngpu)))\n\n# Apply the weights_init function to randomly initialize all weights\n#  to mean=0, stdev=0.2.\nnetD.apply(weights_init)\n\n# Print the model\nprint(netD)\nLet us visualize the architecture of our discriminator model:\nDiscriminator(\n  (main): Sequential(\n    (0): Conv2d(3, 128, kernel_size=(4, 4), stride=(2, 2), padding=(1, 1), bias=False)\n    (1): LeakyReLU(negative_slope=0.2, inplace=True)\n    (2): Conv2d(128, 256, kernel_size=(4, 4), stride=(2, 2), padding=(1, 1), bias=False)\n    (3): BatchNorm2d(256, eps=1e-05, momentum=0.1, affine=True, track_running_stats=True)\n    (4): LeakyReLU(negative_slope=0.2, inplace=True)\n    (5): Conv2d(256, 512, kernel_size=(4, 4), stride=(2, 2), padding=(1, 1), bias=False)\n    (6): BatchNorm2d(512, eps=1e-05, momentum=0.1, affine=True, track_running_stats=True)\n    (7): LeakyReLU(negative_slope=0.2, inplace=True)\n    (8): Conv2d(512, 1024, kernel_size=(4, 4), stride=(2, 2), padding=(1, 1), bias=False)\n    (9): BatchNorm2d(1024, eps=1e-05, momentum=0.1, affine=True, track_running_stats=True)\n    (10): LeakyReLU(negative_slope=0.2, inplace=True)\n    (11): Conv2d(1024, 1, kernel_size=(4, 4), stride=(1, 1), bias=False)\n    (12): Sigmoid()\n  )\n)"
  },
  {
    "objectID": "blog/231118_helloworld/index.html",
    "href": "blog/231118_helloworld/index.html",
    "title": "Hello World!",
    "section": "",
    "text": "Over the past few months, my homepage served as a placeholder for my porfolio. As I have interest in learning and sharing knowledge, I have ch
…
